app/plant_disease_classification/plant_disease_model.pth (torch, 274592 bytes, 10 tensors)

conv1.weight f4 [12, 3, 5, 5]
0	0xbd032fa3	-0.03202785
1	0x3e085eb5	0.13317378
2	0x3e0cd287	0.13752185
3	0x3d9e8317	0.07739847
4	0x3bc9143c	0.0061364453
5	0xbdbcbdf9	-0.09215922
6	0xbb0fb697	-0.00219289
7	0x3d305996	0.043054186
8	0x3d20f4fe	0.039296143
9	0x3d83ae06	0.06429677
10	0x3df94773	0.12171831
11	0xbd82d472	-0.06388177
12	0xbda76ac7	-0.08174663
13	0x3d7f5b1c	0.062342748
14	0x3deae6f7	0.11469834
15	0x3df3345b	0.118752204
16	0x3d3035d0	0.04302007
17	0x3d39e325	0.045382638
18	0x3e19fe04	0.15038306
19	0x3c5d0ccb	0.01349182
20	0xbdbe96c8	-0.09306103
21	0x3dfb3049	0.12265069
22	0x3e1d941b	0.15388529
23	0x3d884a40	0.06654787
24	0x3df44702	0.11927606
25	0xbd8e55d2	-0.06949963
26	0x3d69e84b	0.057106297
27	0xbdddeb2a	-0.108358696
28	0x3c5979e2	0.013273688
29	0x3dd7fa04	0.105457336
30	0xbd840047	-0.064453654
31	0x3d808eff	0.06277274
32	0x3da479ec	0.08031067
33	0x3de5e2bb	0.11224886
34	0xbd70b26f	-0.058763918
35	0xbc31a4ba	-0.0108424965
36	0x3dc1dd0a	0.09465988
37	0xbdde027d	-0.10840318
38	0x3d35ac47	0.04435375
39	0x3c633636	0.013867905
40	0x3cb97906	0.022640716
41	0xbd49b480	-0.049244404
42	0xbdb2a0dd	-0.087220885
43	0x3dbf6311	0.09345067
44	0xbd40bce0	-0.047055125
45	0xbde6348e	-0.11240493
46	0x3d92c8e1	0.07167221
47	0xbdbb4aa8	-0.09145099
48	0x3c84a9be	0.01619422
49	0xbd93d478	-0.072182596
50	0x3b232c37	0.002489818
51	0x3d3659f8	0.044519395
52	0xbd90979c	-0.07060167
53	0xbdfb1b56	-0.12261073
54	0x3de6c50a	0.11268051
55	0xbe12b00a	-0.14324966
56	0x3d9c24f2	0.07624234
57	0xbd9151a2	-0.07095648
58	0xbc979287	-0.018502487
59	0xba86442f	-0.0010243709
60	0x3d22ecc7	0.03977659
61	0xbda64df1	-0.08120335
62	0xbe26f157	-0.16303001
63	0xbd6e4c12	-0.058178015
64	0x3d9b1e2e	0.07574116
65	0x3cd19a44	0.025586255
66	0x3b9ee21a	0.0048487308
67	0xbd5e728e	-0.054308467
68	0x3d552d3c	0.052045092
69	0xbde34900	-0.11097908
70	0xbe311144	-0.17291743
71	0x3d0fa9dc	0.0350741
72	0xbc20dd27	-0.009818352
73	0x3da9500e	0.08267222
74	0xbd250e16	-0.040296637
75	0xbe0d6abe	-0.1381025
76	0xbe152f8c	-0.14568919
77	0xbe19dc98	-0.15025556
78	0xbe126ccf	-0.1429932
79	0xbdf24170	-0.118288875
80	0xbe2d4e7d	-0.16924472
81	0x3bc4edd7	0.006009798
82	0xbca76be9	-0.020437198
83	0x3e159f8c	0.14611644
84	0xbb475c59	-0.0030420034
85	0xbe42c054	-0.1901868
86	0xbd403811	-0.04692847
87	0x3e174046	0.14770612
88	0x3e2b9d26	0.16759166
89	0x3dae82f6	0.085210726
90	0x3bd05b4d	0.00635854
91	0xbd500faa	-0.05079619
92	0xbd463e8a	-0.048399486
93	0x3d7699c2	0.06020523
94	0xbda826a6	-0.082104966
95	0xbde56996	-0.112017795
96	0xbcee5e88	-0.02909781
97	0x3bf59523	0.007494585
98	0xbe30a922	-0.17252019
99	0x3dafc23e	0.08581971
100	0x3d458ee8	0.04823199
101	0xbe0009e4	-0.12503773
102	0xbe1e6e67	-0.15471803
103	0xbe6169ef	-0.22013067
104	0xbdd8ec91	-0.105919965
105	0xbe0bc48b	-0.13649194
106	0x3c312c66	0.010813808
107	0xbe0fda78	-0.14048183
108	0x3dacb4aa	0.084328964
109	0xbd9e1e7a	-0.07720657
110	0xbd957be1	-0.07299019
111	0xbd27de50	-0.040983498
112	0x3d8b29f6	0.06795113
113	0x3de56e6e	0.112027034
114	0xbe4b34e8	-0.19844401
115	0xbceb3fc3	-0.028716927
116	0x3d447915	0.047967035
117	0xbdb77dcf	-0.08959543
118	0xbe26504b	-0.16241567
119	0xbe098025	-0.1342779
120	0xbe0baa79	-0.13639249
121	0x3e00ad01	0.12565996
122	0x3beb717d	0.0071851597
123	0xbe4f2c9f	-0.20231865
124	0x3b2e2d6d	0.002657737
125	0x3d6608af	0.056160625
126	0x3b32c60f	0.0027278697
127	0x3da48e13	0.08034911
128	0x3d779b43	0.060450803
129	0x3e11bee4	0.14232975
130	0xbdb730d5	-0.08944861
131	0xbd003216	-0.031297766
132	0x3e044963	0.1291862
133	0x3e201f5b	0.15636961
134	0x3e0af5df	0.13570355
135	0xbd93255c	-0.0718486
136	0xbd58bbea	-0.052913584
137	0x3dd8607b	0.10565277
138	0x3d9df49c	0.07712671
139	0x3e1b0fd0	0.1514275
140	0xbd6fcb03	-0.058543216
141	0x3db201aa	0.08691724
142	0xbc0b9cdd	-0.008521286
143	0xbd8b3fb9	-0.067992635
144	0xbd30cb44	-0.0431626
145	0xbce99c6b	-0.028516969
146	0x3e56575d	0.20931764
147	0x3e09d9d3	0.13462
148	0x3e10ca18	0.14139593
149	0x3e21a9b5	0.15787394
150	0x3c3eac59	0.011637771
151	0xbbfb3e20	-0.007667318
152	0xbd8ad407	-0.06778722
153	0xbce687ec	-0.028140984
154	0xbe6dcf7a	-0.23223677
155	0xbd97a73f	-0.074049465
156	0x3db57c7c	0.08861634
157	0x3dd601a6	0.10449533
158	0xbdfee69a	-0.124463275
159	0xbe19ff63	-0.15038829
160	0xbe16f6d1	-0.1474259
161	0xbd14a322	-0.036288388
162	0xbdf91b94	-0.12163463
163	0xbdea53b5	-0.11441747
164	0xbe5c0c07	-0.21488963
165	0xbe063860	-0.13107443
166	0xbe7a1d65	-0.24425276
167	0xbe604716	-0.21902117
168	0xbe286660	-0.16445303
169	0xbda1a725	-0.078932084
170	0xbdc49253	-0.09598222
171	0xbe0916a6	-0.13387546
172	0xbe45bd9f	-0.19310616
173	0x3c3c6350	0.011498287
174	0x3d367160	0.044541717
175	0x3da2d40f	0.07950603
176	0x3c6e01c8	0.014526792
177	0x3ddfca9d	0.10927317
178	0x3e1440bc	0.14477819
179	0xbdd89304	-0.10574916
180	0x3c81f71f	0.015864907
181	0x3e2746c1	0.16335584
182	0x3e38f7b0	0.18063235
183	0xbdbc1611	-0.09183896
184	0x3c1906c1	0.009339989
185	0x3da27aba	0.079335645
186	0x3e1ffc1b	0.15623514
187	0x3b1c3811	0.002383713
188	0xbe169bea	-0.14707914
189	0xbca2739d	-0.01983052
190	0x3e42431d	0.18970914
191	0xbe079d18	-0.1324352
192	0xbe706a1c	-0.23477978
193	0xbdf569ae	-0.119830474
194	0x3d87558d	0.066081144
195	0x3d8e4b1e	0.06947921
196	0x3d8a1f0b	0.06744202
197	0xbdf77eca	-0.1208473
198	0x3e1eca80	0.15506935
199	0x3e8170a9	0.25281265
200	0xbdd6572c	-0.104658455
201	0xbe003921	-0.12521793
202	0x3d3921ee	0.045198373
203	0xbcc196af	-0.023631422
204	0x3a7e2723	0.0009695163
205	0x3ca109f5	0.019658068
206	0xbca2e351	-0.019883784
207	0x3e1c6de0	0.15276289
208	0xbdc16ecf	-0.09444963
209	0x3daee0d6	0.08538978
210	0x3de7cf28	0.11318809
211	0x3d78c8ed	0.060738493
212	0x3e0498a4	0.12948853
213	0x3ce77da3	0.02825815
214	0x3e09a51e	0.13441893
215	0x3de4ad68	0.11165887
216	0x3c725647	0.014791078
217	0xbca3bb76	-0.01998685
218	0x3df860e1	0.12127853
219	0x3e4fa6f8	0.20278537
220	0xbccfc957	-0.025364561
221	0x3e15da33	0.14634018
222	0x3e252290	0.16126466
223	0x3dc8620f	0.09784328
224	0x3e660268	0.22461855
225	0xbd84b9ea	-0.06480773
226	0x3c9f6b9c	0.019460492
227	0x3db6c60e	0.08924495
228	0x3de0a75c	0.10969421
229	0x3d9aaf29	0.075529404
230	0x3cba5002	0.022743229
231	0x3daff423	0.08591487
232	0x3e2fcb0c	0.171673
233	0x3e2e4cfb	0.17021553
234	0x3e1043d6	0.14088377
235	0xbb652dae	-0.0034969854
236	0x3e37962a	0.17928377
237	0x3e565c97	0.20933758
238	0x3d31a540	0.043370485
239	0x3e0bc1c6	0.13648137
240	0x3dd1846f	0.10230338
241	0x3da28fb3	0.07937565
242	0x3e1d855c	0.15382904
243	0x3caf11f0	0.021370858
244	0x3dcb7aa4	0.09935501
245	0x3d60327c	0.054735646
246	0x3d80e418	0.062935054
247	0x3e0614de	0.13093898
248	0x3d85b4a9	0.06528599
249	0xbd05fd5d	-0.03271233
250	0x3dd2ecd8	0.102990806
251	0x3dd9ea63	0.10640409
252	0x3df9822b	0.12183031
253	0x3dffdf73	0.124937914
254	0x3dad08da	0.08448954
255	0x3d87d7df	0.06632971

conv1.bias f4 [12]
0	0x3e80c392	0.25149208
1	0x3efdf95c	0.4960431
2	0x3f28452f	0.65730566
3	0x3e5c4956	0.2151235
4	0x3e3a4eb7	0.1819409
5	0x3d8a3056	0.067475006
6	0xbcae461a	-0.021273661
7	0x3eec4bf1	0.4615169
8	0x3ebafb7e	0.36519998
9	0x3e08f5f4	0.13375074
10	0x3c99a899	0.018757151
11	0x3c87c2ef	0.016572444

conv2.weight f4 [24, 12, 5, 5]
0	0xbafb963a	-0.0019194551
1	0x3d48be04	0.049009338
2	0x3d15e68e	0.036596827
3	0xbc823630	-0.01589498
4	0xbd2ba715	-0.04190739
5	0xbb991495	-0.004671643
6	0x3d761797	0.06008109
7	0x3cfe5104	0.03104449
8	0x3b5a97ec	0.0033354713
9	0x3d868f45	0.06570295
10	0x3d9b2777	0.07575887
11	0xbccf0c85	-0.025274524
12	0x3d9fc2b7	0.07800811
13	0xbc29a07d	-0.010353205
14	0xbc76f5bf	-0.015073239
15	0x3dad5497	0.084634
16	0x3cb445c0	0.022005916
17	0x3caabe4a	0.02084269
18	0x3cf5de38	0.030013189
19	0x3c066e37	0.008204988
20	0xbcaafe48	-0.020873204
21	0x3da95254	0.08267656
22	0xbc8bb502	-0.017054085
23	0xbd2c547c	-0.042072758
24	0xbcba920b	-0.022774717
25	0xbc82560d	-0.015910173
26	0xbd1a09c4	-0.03760697
27	0xbd60e2ca	-0.054903783
28	0x3d6b63c0	0.057468176
29	0xbc22b77a	-0.0099314395
30	0xbd3e51f4	-0.046464875
31	0x3d12e8ba	0.035866477
32	0x3bb4068f	0.005493946
33	0x3b68247e	0.0035422142
34	0x3da2bcda	0.07946177
35	0x3d1618b7	0.036644664
36	0x3a8a6151	0.0010557567
37	0x3d37a326	0.044833325
38	0x3cc20b1e	0.023686942
39	0x3cda2ae8	0.026631787
40	0xbcc18907	-0.02362491
41	0x3c7a3533	0.015271473
42	0x3cf74a77	0.030186875
43	0xbd583e6f	-0.052793916
44	0x3d59511f	0.05305588
45	0x3c3adeb1	0.011405633
46	0xbd81923a	-0.06326719
47	0x3d5a35eb	0.053274076
48	0x3d57aa7f	0.052652832
49	0x3d8150f1	0.063142665
50	0xbc2a3479	-0.010388487
51	0x3cee92bc	0.029122703
52	0xbd4cea0e	-0.0500279
53	0xbb9e0d33	-0.004823351
54	0x3b45889a	0.0030141235
55	0x3ca330b6	0.019920688
56	0xbd7c3f54	-0.061583832
57	0xbd0aea94	-0.033915117
58	0xbd3d32bb	-0.04619096
59	0x3cb3f4b7	0.021967275
60	0xbd59ef2b	-0.053206604
61	0xbd3128b3	-0.043251704
62	0x3cbc9e8e	0.023024824
63	0xbce33a09	-0.027737634
64	0xbd208f4d	-0.039199162
65	0xbd3b36bd	-0.0457065
66	0x3cd2f757	0.025752706
67	0xbc938c5a	-0.01801126
68	0xbcbe1a19	-0.023205804
69	0x3d97e6dd	0.074170806
70	0x3a93da9e	0.0011280363
71	0xbd5b6729	-0.053565178
72	0x3cfbcf9f	0.03073865
73	0x3ca34c7d	0.019933933
74	0xbc9a182e	-0.018810358
75	0x3d0643f0	0.032779634
76	0xbc6b1d40	-0.014350235
77	0x3c32c901	0.010912181
78	0xbc9d5fd7	-0.019210739
79	0xbc6b7b08	-0.014372595
80	0x3d032f74	0.032027677
81	0x3ca01d25	0.019545147
82	0xbd49cc80	-0.049267292
83	0xbd6db94a	-0.058038034
84	0xbd7e5744	-0.06209494
85	0x3be032ee	0.006842009
86	0x3d1f4951	0.03888828
87	0x3d624ba9	0.055247936
88	0xbcca3b16	-0.024686377
89	0x3c221030	0.009891555
90	0x3d83bfbb	0.06433054
91	0xbd351fc4	-0.044219747
92	0xbcb52348	-0.02211155
93	0xbbac9ae7	-0.0052674892
94	0xbcb3240a	-0.02186777
95	0xbc31f587	-0.010861761
96	0xbd44b35e	-0.04802262
97	0x3b1725a9	0.0023063219
98	0xbd859930	-0.06523359
99	0xbc953136	-0.018211942
100	0xbd374736	-0.044745646
101	0xbdde5cc0	-0.108575344
102	0x3d107115	0.035264093
103	0x3db4937f	0.08817195
104	0x3d22cb75	0.039744813
105	0xbd565286	-0.052324794
106	0xbdc715c5	-0.09720949
107	0x3d107e74	0.035276845
108	0xbc0ff58d	-0.008786571
109	0x3dcee094	0.10101429
110	0xbba7143c	-0.0050988477
111	0xbdad0ea0	-0.08450055
112	0xbd33d6f6	-0.043906175
113	0xbcad90d7	-0.02118723
114	0x3d6ef0e4	0.0583352
115	0xba2ed512	-0.0006669323
116	0x3c911574	0.017710425
117	0x3c9dfffd	0.019287104
118	0x3c823197	0.015892787
119	0x3c2271db	0.009914841
120	0x3d6d1932	0.057885356
121	0x3d710e15	0.05885132
122	0xbcd431b6	-0.02590261
123	0x3d681e0a	0.056669272
124	0x3d69de65	0.057096858
125	0xbd8d787c	-0.06907746
126	0x3c837c15	0.016050378
127	0xbd1f45ba	-0.038884856
128	0x3c7626ce	0.0150239
129	0x3bdc0932	0.0067149634
130	0x3d2a1488	0.041523486
131	0xbd7ce508	-0.06174186
132	0xbd2f2bf2	-0.04276652
133	0xbd72f540	-0.05931592
134	0xbd8a8b06	-0.06764798
135	0x3b828845	0.0039835298
136	0xbceff278	-0.029290423
137	0x3d393f65	0.045226473
138	0xb8ce7726	-9.8450386e-05
139	0xbd110d84	-0.03541328
140	0xbab3433f	-0.0013676657
141	0xbcdb2a1b	-0.026753476
142	0xbd12b81b	-0.035820108
143	0xbd0b14e6	-0.033955477
144	0x3b8a3d44	0.004218729
145	0xbd97fa3a	-0.07420774
146	0xbd79a00b	-0.060943644
147	0xbbd871a0	-0.006605342
148	0x399a5e5a	0.00029443466
149	0x3cdc3557	0.026880903
150	0xbcb0c7b5	-0.021579603
151	0xbd9d5116	-0.076814815
152	0x3cdf83b4	0.02728448
153	0x3e1064a0	0.14100885
154	0x3dd3853d	0.103281476
155	0xbc8bd11d	-0.017067486
156	0xbd1e1520	-0.038594365
157	0xbd891736	-0.0669388
158	0x3d284aeb	0.041087072
159	0x3df3a005	0.11895756
160	0xbd6e88b9	-0.058235858
161	0x3cff7bac	0.031186901
162	0xbd8f2796	-0.06989972
163	0x3cb686fe	0.022281166
164	0x3d8f20db	0.069886886
165	0x3d2f9908	0.04287055
166	0xbab11612	-0.0013510606
167	0xbce59fb0	-0.028030246
168	0xbc28663e	-0.010278283
169	0xbc8d73ae	-0.017267074
170	0x3d339300	0.043841362
171	0x3d3cfb5d	0.046138156
172	0x3d24ce8c	0.04023604
173	0x3d508cab	0.0509154
174	0x3d623345	0.055224676
175	0xbb1db7e1	-0.00240659
176	0x3b3d94c3	0.002892778
177	0xbbab27ca	-0.005223249
178	0x3ce03592	0.027369294
179	0x3d2729bf	0.040811297
180	0x3cc4101b	0.023933461
181	0x3d63e6eb	0.055640142
182	0x3d88674a	0.06660326
183	0x3ca920a8	0.020645455
184	0x3ca616b9	0.020274507
185	0xbb4bd38d	-0.0031101436
186	0x3d34d681	0.04414988
187	0x3bf21f7f	0.0073890085
188	0xbbaa3d9b	-0.005195332
189	0xbd2653db	-0.040607315
190	0xbc2b1a93	-0.0104433475
191	0x3d1a8e63	0.037733447
192	0x3ba96f9a	0.0051707746
193	0xbd2bb805	-0.04192354
194	0xbc3f1df6	-0.011664858
195	0x3cb6fbf2	0.022336934
196	0x3cc98a39	0.024602043
197	0xbcd3db29	-0.02586134
198	0xbcdcc769	-0.026950555
199	0x3bc3ad4f	0.0059715877
200	0x3d7414c7	0.059590127
201	0x3ab2b267	0.001363349
202	0x3dc9ed2e	0.098596916
203	0x3dd01754	0.101606995
204	0x3c94fc50	0.018186718
205	0x3d04111b	0.032242876
206	0x3de26214	0.11053863
207	0x3ce26ac4	0.0276388
208	0x3d180238	0.03711149
209	0x3d9622fd	0.07330892
210	0x3de906c8	0.113782465
211	0x3dbdc820	0.092666864
212	0x3dab3ac5	0.08360819
213	0x3e008736	0.12551579
214	0x3d7c64ed	0.061619688
215	0x3d756316	0.05990895
216	0x3dec0d35	0.115259565
217	0x3e03a065	0.12854154
218	0x3d8db8e0	0.06920028
219	0x3da14fc3	0.078765415
220	0x3ddd4692	0.10804476
221	0x3e255486	0.16145524
222	0x3e139ff8	0.14416492
223	0x3d9f12d8	0.07767266
224	0x3ce6c623	0.02817065
225	0x3d57bd9d	0.052671064
226	0x3c87f839	0.016597854
227	0x3d7c02bb	0.06152604
228	0x3c031565	0.008000706
229	0xbcaf7fa7	-0.021423174
230	0x3d4aad20	0.04948151
231	0xba2b5d7a	-0.00065370614
232	0x3d27ad79	0.04093692
233	0x3d42e004	0.04757692
234	0xbc014d24	-0.007891927
235	0x3db06c56	0.086144134
236	0xbcb3e7a4	-0.02196104
237	0x3d0c9ef7	0.03433129
238	0x3da32762	0.07966496
239	0x3c4b5e01	0.012412549
240	0xbc9ad1c2	-0.018898848
241	0x3c0749c1	0.00825733
242	0x3ccaf71b	0.024776032
243	0xbcc74ea0	-0.024329484
244	0xbc871a7e	-0.016492125
245	0x3d0bbf82	0.034118183
246	0x3d2cab9a	0.04215584
247	0xbcf10695	-0.029422084
248	0x3ba9cb27	0.0051816883
249	0x3d3cd2b2	0.046099372
250	0xbd4bd956	-0.049767815
251	0xbc0d99f0	-0.008642659
252	0x3ad3eac4	0.0016167988
253	0x3cdae60a	0.02672102
254	0x3cfc23fb	0.030778876
255	0x3c90cf4b	0.01767697

conv2.bias f4 [24]
0	0x3dc67338	0.09689945
1	0x3db8e5a5	0.09028176
2	0x3bb116d1	0.0054043313
3	0x3df79ff9	0.12091059
4	0x3d770313	0.060305666
5	0xbc487eea	-0.01223729
6	0x3be91b33	0.007113838
7	0x3cca5cec	0.024702512
8	0x3d74fc94	0.05981119
9	0x3d3b9995	0.045800764
10	0xbd03baaf	-0.032160457
11	0x3d08f3a8	0.033435494
12	0xbb95bd64	-0.0045696963
13	0xbd20c0ab	-0.039246242
14	0x3d9b3055	0.07577578
15	0x3d0e2c1a	0.034710027
16	0x3d248a6e	0.04017108
17	0x3b3f0129	0.0029144979
18	0xbc901f82	-0.01759315
19	0x3b23bd7a	0.0024984763
20	0x3b946d50	0.0045296326
21	0xbcfb6f66	-0.030692767
22	0x3ded65da	0.11591692
23	0xbd611058	-0.054947227

fc1.weight f4 [120, 384]
0	0xbd55d241	-0.052202467
1	0xbaa2c93b	-0.001241959
2	0xbd2347ac	-0.039863274
3	0xbbd66001	-0.0065422063
4	0x3ce489b0	0.027897686
5	0xbc6409a8	-0.013918318
6	0x3d080984	0.0332122
7	0x3c8c0f94	0.017097272
8	0xbcb3e1e2	-0.021958295
9	0x3d18ace4	0.037274256
10	0xbc668770	-0.014070377
11	0x3cf2f701	0.029658796
12	0x3d31e7b2	0.043433852
13	0x3c8e5b2d	0.01737746
14	0xbbb7200d	-0.0055885375
15	0x3bf163bf	0.007366627
16	0x3d14c5d0	0.03632146
17	0x3d6dd060	0.05806005
18	0x3d1a6fff	0.037704464
19	0xbcaca953	-0.021076834
20	0x3ce6ef53	0.02819029
21	0xbce707f8	-0.028202042
22	0x3c1be549	0.009515115
23	0xbc87e6a2	-0.016589466
24	0x3cf4352f	0.029810516
25	0x3d61652a	0.05502812
26	0x3d6e714f	0.05821353
27	0x3c74645e	0.0149165075
28	0xbca6d797	-0.020366473
29	0x3d7f77f4	0.062370256
30	0xbce3aab4	-0.027791359
31	0xbd4c078c	-0.049811885
32	0x3ccce386	0.025010835
33	0xbac42db2	-0.0014967232
34	0xbb036074	-0.0020046504
35	0x3d4bd500	0.04976368
36	0xbd42774f	-0.047477063
37	0x3d5cdf3e	0.053923838
38	0x3cd6ad54	0.026205696
39	0x3d5012b9	0.050799105
40	0xbd0cab47	-0.03434303
41	0x3cc88e7d	0.024482006
42	0x3c54fda8	0.0129999295
43	0xbd22389a	-0.03960476
44	0xbd908a04	-0.070575744
45	0x3d46f326	0.04857173
46	0x3d05ba8e	0.032648616
47	0x3c13b105	0.009014373
48	0xbd2270ed	-0.039658476
49	0x3c16583d	0.009176311
50	0x3d58ea3d	0.052957762
51	0x3d16bf4f	0.03680354
52	0x3d1ea082	0.03872729
53	0xbc34567e	-0.0110069495
54	0x3cc80cec	0.024420224
55	0x3c824e8e	0.015906598
56	0xbce37419	-0.02776532
57	0x3c1a4451	0.009415702
58	0x3d3449eb	0.044015806
59	0xbc756e8b	-0.014979969
60	0xbd05831f	-0.03259575
61	0xbd175d1d	-0.036954034
62	0xbd11e573	-0.03561921
63	0x3bbde30d	0.005794889
64	0xbd2f2416	-0.042759024
65	0x3c209a62	0.009802433
66	0xbb3c79dc	-0.0028759157
67	0x3cce6d58	0.025198624
68	0x3cb5d2a8	0.022195175
69	0x3d190b26	0.037364148
70	0x3c019dd1	0.0079111615
71	0xbd128112	-0.035767622
72	0x3ce31fbd	0.027725095
73	0xbcfa81e1	-0.03057951
74	0xbc66440f	-0.014054312
75	0x3c35bcbf	0.011092364
76	0xbd1e4a21	-0.038644914
77	0x3cf416a7	0.029795958
78	0xbd68758e	-0.056752734
79	0x3c697db2	0.0142511595
80	0x3cec2e14	0.028830566
81	0xbd3d15ee	-0.046163492
82	0x3d0570c6	0.032578252
83	0xbcbbb763	-0.022914594
84	0xbaadf897	-0.0013272938
85	0xbc7ac77d	-0.015306351
86	0xbceb686d	-0.028736318
87	0x3cdaa567	0.026690198
88	0x3d004bbc	0.031322226
89	0xbcc60ab4	-0.024175026
90	0xbba2759f	-0.004957869
91	0x3d11fafc	0.035639748
92	0x3d22feb2	0.039793678
93	0x3d0550dc	0.032547817
94	0xbd1e982c	-0.03871934
95	0x3c9e76e6	0.019343805
96	0x3d0254e3	0.031819236
97	0x3c4cbb69	0.012495854
98	0x3d136657	0.03598627
99	0x3d2c7550	0.042104065
100	0x3d0587b7	0.03260013
101	0xbc0c3148	-0.008556671
102	0xbcaa55ab	-0.020792803
103	0xbd2c31fc	-0.042039856
104	0x3cbdf8d7	0.023189945
105	0x3b16a240	0.0022984892
106	0x3d25348a	0.04033331
107	0x3d11072f	0.03540724
108	0xbccaebc9	-0.024770634
109	0xbcc92173	-0.024552083
110	0x3cf9f4a3	0.03051216
111	0x3cadcccb	0.021215817
112	0x3c2f9add	0.010718075
113	0x3cdae47a	0.026720274
114	0x3cab3717	0.020900292
115	0x3bad0106	0.005279663
116	0xbcc4bc69	-0.024015622
117	0x3bef9d34	0.0073124412
118	0xbcb0dd27	-0.021589829
119	0xbc5683b0	-0.01309292
120	0xbd434f0e	-0.047682814
121	0xbcec606a	-0.028854568
122	0xbc629d39	-0.01383143
123	0x3b88a83e	0.0041704467
124	0x3d4b9398	0.049701303
125	0x3d0a5393	0.03377111
126	0xbc49ed6f	-0.012324675
127	0x3c910e3b	0.01770698
128	0x3ce3108c	0.027717851
129	0x3ce0f7e8	0.02746196
130	0x3c4742e9	0.012161949
131	0xbb0ccf8b	-0.002148601
132	0x3d05d4ee	0.03267377
133	0xbd824f31	-0.06362761
134	0x3d0ebd35	0.03484841
135	0xbc8548f9	-0.016270148
136	0x3c964a45	0.018345961
137	0xbb977a1f	-0.0046227123
138	0xbd3d96de	-0.046286456
139	0xbd10a3e2	-0.03531254
140	0x3cc74831	0.024326416
141	0x3b3030ba	0.0026884512
142	0x3c9ecc0e	0.01938441
143	0x3d4e895a	0.050423957
144	0xbcc7eab5	-0.02440391
145	0x3c7b68ba	0.015344793
146	0x3d1b5112	0.03791911
147	0xbd4933c9	-0.04912165
148	0x3d139513	0.03603084
149	0xbb2fa0bd	-0.0026798688
150	0x3d126ecd	0.0357502
151	0xbaf9cbd7	-0.0019057941
152	0xbd78e955	-0.060769398
153	0x3bc51fa9	0.006015737
154	0x3ac9d854	0.0015399554
155	0xbd463638	-0.04839155
156	0x3d057a80	0.03258753
157	0xbcac1f66	-0.021011066
158	0xbd426657	-0.04746088
159	0xbd2c7113	-0.042100023
160	0x3d002382	0.031283863
161	0xbce22acc	-0.027608298
162	0x3c82ee5e	0.015982803
163	0xbd2a4300	-0.041567802
164	0x3d0b547e	0.034016125
165	0xbc8759c7	-0.016522301
166	0xbbd84945	-0.0066005313
167	0xbc8bdf97	-0.01707439
168	0xbc406a94	-0.01174416
169	0x3c8b92ed	0.017037833
170	0x3d2fffa0	0.042968392
171	0x3c35da91	0.011099474
172	0x3d0f73da	0.035022594
173	0xbc8d1537	-0.01722203
174	0x3d616197	0.05502471
175	0x3ccaa147	0.024735106
176	0x3d236676	0.039892636
177	0xbd2bd8d9	-0.04195485
178	0xbd62daa6	-0.0553843
179	0x3cae9528	0.021311358
180	0xbb010fad	-0.0019693181
181	0x3c821fd5	0.01588432
182	0x3d2840d8	0.041077465
183	0x3bbbd660	0.0057323426
184	0x3d176a7f	0.036966797
185	0xbd30231c	-0.043002233
186	0xbd66dc87	-0.056362655
187	0x3b9ae992	0.004727551
188	0x3c46b9e2	0.012129279
189	0xbc9bac7a	-0.019003142
190	0x3d2abb28	0.041682392
191	0xbbab5291	-0.0052283485
192	0xbb84d81d	-0.004054083
193	0x3c6f2082	0.014595153
194	0x3d56cd45	0.052441854
195	0xbd11f469	-0.03563348
196	0xbce4380c	-0.027858756
197	0xbc6d2ff6	-0.014476767
198	0xbd3cd92d	-0.046105552
199	0x3bdb4b1f	0.0066923047
200	0x3c42bbf1	0.011885629
201	0x3d0085ec	0.031377718
202	0x3c9fcacf	0.019505886
203	0x3b72fe6e	0.0037077921
204	0x3cca43a9	0.024690466
205	0x3d07031a	0.032961942
206	0xbb455850	-0.0030112453
207	0x3d6fe0b7	0.058563914
208	0xbd155bbe	-0.036464445
209	0x3d2a9320	0.041644216
210	0xbc040160	-0.008056968
211	0xbd3c6245	-0.045992155
212	0x3b923df6	0.0044629527
213	0x3d1e5b54	0.038661316
214	0x3bf43f67	0.007453847
215	0xbd73576a	-0.059409536
216	0x3d3f3466	0.04668083
217	0x3cd21d98	0.025648877
218	0x3d2624dd	0.0405625
219	0xbb035d4a	-0.0020044618
220	0x3bfbe885	0.0076876306
221	0x3c2dc081	0.010604979
222	0xbd236859	-0.039894436
223	0x3c46b670	0.012128457
224	0x3bcc1b4b	0.0062288395
225	0xbd4694c9	-0.048481736
226	0x3cfb445f	0.03067225
227	0x3d0423ce	0.03226071
228	0xbd4d77f7	-0.050163236
229	0x3c6e31b1	0.014538215
230	0xbd257723	-0.04039682
231	0x3cfbf737	0.03075753
232	0x3ad05c5b	0.0015896665
233	0xbd5ced96	-0.053937517
234	0xbb91c17b	-0.0044481135
235	0xbcb5ee7f	-0.02220845
236	0xbcb1c461	-0.021700086
237	0xbcbe07eb	-0.023197135
238	0xbcad4ee2	-0.021155778
239	0xbd247d9d	-0.040158857
240	0xbd550940	-0.052010775
241	0x3d6959f9	0.05697057
242	0x3c7b17bc	0.015325483
243	0xbb6b2a9f	-0.0035883558
244	0x3c83632d	0.016038502
245	0xbc18228e	-0.009285582
246	0xbc2e1643	-0.010625425
247	0xbb8bab44	-0.00426236
248	0xbd147df9	-0.03625295
249	0x3d969abc	0.07353732
250	0x3b2663fa	0.002538918
251	0x3c649c51	0.013953284
252	0x3cfd2893	0.030903136
253	0x3d8b2c4d	0.06795559
254	0x3cda4c23	0.026647633
255	0xbc0ca823	-0.008585009

fc1.bias f4 [120]
0	0x3d5fd0f2	0.054642625
1	0x3d8ca631	0.06867636
2	0xbd1468fd	-0.036232937
3	0xbcd9e62c	-0.026599012
4	0x3d0990af	0.033585247
5	0xbcc491b7	-0.023995264
6	0x3d184954	0.037179306
7	0xbd339cce	-0.043850712
8	0x3afc8d94	0.0019268268
9	0x3c4d64dc	0.012536254
10	0x3d3b3295	0.045702536
11	0x3d0e6dab	0.034772556
12	0xbd4b554e	-0.0496419
13	0x3cd28cd0	0.02570191
14	0xba95ff5e	-0.0011443903
15	0xbce78f91	-0.0282667
16	0xbcf1ca25	-0.029515335
17	0xbcd0fb36	-0.025510412
18	0xbd59e705	-0.053198833
19	0xbcc49ae7	-0.023999644
20	0xbd266791	-0.040626112
21	0xbd62577d	-0.055259217
22	0xbd263f12	-0.040587492
23	0x3be72c80	0.0070548654
24	0xbd4d71c2	-0.050157316
25	0x3d88aa0b	0.06673058
26	0x3d17d3ce	0.037067227
27	0xbdb67522	-0.0890906
28	0xbd323304	-0.043505684
29	0x3ce1b3ba	0.02755152
30	0x3ce16033	0.027511692
31	0x3d149f7e	0.036284916
32	0xbcf9711a	-0.030449439
33	0xbd67ffdd	-0.056640495
34	0x3c05ff0f	0.0081784865
35	0x3d6a250e	0.057164244
36	0x3cc75b08	0.0243354
37	0x3d1c95cd	0.0382288
38	0x3c06797d	0.008207676
39	0x3d7f61ef	0.062349256
40	0xbd5cc929	-0.05390278
41	0x3b31625b	0.002706668
42	0x3c4e5531	0.012593553
43	0xbd531dca	-0.05154208
44	0xbbf31461	-0.007418201
45	0xbc29d157	-0.010364852
46	0xbc9c8e04	-0.019110687
47	0xbb9a3980	-0.0047065616
48	0xbd3cc29a	-0.046084024
49	0xbc5b98ed	-0.01340316
50	0x3d7cf85b	0.061760288
51	0x3bf6359f	0.0075137164
52	0x3ce5ced1	0.02805272
53	0xb97e22c2	-0.00024236276
54	0x3d5f07ac	0.054450676
55	0xbcb6efd4	-0.022331156
56	0x3d0be838	0.034157008
57	0x3cba324f	0.022729067
58	0x3c3a8e55	0.011386474
59	0x3c1047ae	0.008806152
60	0xbd3e33d5	-0.04643615
61	0xbd6aa6cf	-0.057287987
62	0x3c636479	0.013878935
63	0x3a6653f2	0.00087863125
64	0xbb2a6eed	-0.0026006058
65	0xbd19ea0d	-0.037576724
66	0x3d6f5568	0.05843106
67	0x3b9e4259	0.0048296866
68	0xbd045284	-0.032305256
69	0x3d1f49cf	0.03888875
70	0x3cd2614e	0.025681164
71	0x3c60c5c5	0.013719027
72	0xbcc0d4ad	-0.023538912
73	0x3d31f921	0.04345048
74	0xbd05391b	-0.032525163
75	0x3d3e93b5	0.046527583
76	0x3c34c8b2	0.011034178
77	0xbd0974dd	-0.033558715
78	0x3d10de16	0.035368048
79	0x3bedc718	0.0072564
80	0xbbe71fca	-0.00705335
81	0x3ce940f6	0.028473359
82	0x3d46f0ae	0.048569374
83	0xbd32bf4a	-0.04363946
84	0x3d058831	0.032600585
85	0xbd6e2f08	-0.05815032
86	0xbc868bc1	-0.016424062
87	0x3d5a0392	0.05322606
88	0x3ccc107e	0.024910208
89	0xbd2d5e8a	-0.042326488
90	0x3c01bdfc	0.007918831
91	0xbce1ac03	-0.027547842
92	0x3d089800	0.033348083
93	0xbcd4edbb	-0.025992265
94	0x3d1039d4	0.0352114
95	0xbad9cb2c	-0.0016616336
96	0x3c450fb5	0.012027671
97	0xbcb60919	-0.022221135
98	0x3c3141c3	0.0108189015
99	0xbd4a0262	-0.04931868
100	0x3ddc7099	0.10763664
101	0x3c2759ca	0.0102142785
102	0xbd1de3e2	-0.038547404
103	0x3cd998ec	0.026562177
104	0xbd1753bf	-0.0369451
105	0xbc5451f7	-0.012958995
106	0xbd14d0a3	-0.036331784
107	0xbd254775	-0.04035135
108	0xbcc80441	-0.02441609
109	0x3d1d7b2e	0.03844755
110	0x3cf0f3ad	0.029413069
111	0x3c2da5d7	0.010598621
112	0x3cfc40e9	0.03079267
113	0x3d129c5b	0.035793643
114	0xbc2f1602	-0.010686399
115	0x3abc76bf	0.0014378651
116	0xbd2b9413	-0.04188926
117	0x3d7c81c0	0.061647177
118	0xbd60b57a	-0.05486057
119	0xbd6fa4ae	-0.05850666

fc2.weight f4 [84, 120]
0	0x3daec2a9	0.08533222
1	0x3d5f881b	0.05457316
2	0x3cebe75b	0.028796842
3	0xbdaa08e3	-0.08302476
4	0xbc25494d	-0.010088277
5	0x3d98d986	0.07463364
6	0x3cb530ed	0.022118056
7	0xbd8ee0b7	-0.06976455
8	0x3bc8c38c	0.0061268266
9	0xbcf114c2	-0.029428843
10	0xbc5f0279	-0.013611429
11	0x3d832f94	0.06405559
12	0xbd01191f	-0.031518098
13	0x3d151759	0.03639922
14	0xbc8d44ce	-0.017244723
15	0x3d76054f	0.060063656
16	0x3b5f748d	0.003409657
17	0x3cd0efc6	0.025504958
18	0x3c991f4e	0.018691685
19	0x3d5b7237	0.05357572
20	0x3ce4fb27	0.02795179
21	0xbda3581f	-0.07975792
22	0xbd6f3817	-0.0584031
23	0xbd1d0546	-0.038335107
24	0xbdaeb510	-0.08530629
25	0x3d81acc0	0.063317776
26	0xbd5789fb	-0.052621823
27	0xbd0145d9	-0.031560753
28	0xbd11b714	-0.035574988
29	0x3d08e7b4	0.033424094
30	0xbce7e378	-0.028306708
31	0x3db4c7b7	0.08827155
32	0x3d9f0d00	0.077661514
33	0xbd4b02b8	-0.04956314
34	0x3d827779	0.06370444
35	0x3da987b4	0.082778364
36	0xbdb9a769	-0.09065134
37	0xbd1ade0d	-0.03780942
38	0xbc6889ee	-0.014193041
39	0xbd1a8898	-0.037727922
40	0xbd4d3df6	-0.05010792
41	0xbd87ab06	-0.06624417
42	0xbd8e1ab9	-0.06938691
43	0xba35bd58	-0.00069328165
44	0xbd770b9b	-0.060313802
45	0xbdb30c79	-0.08742613
46	0xbdc0a3a9	-0.09406216
47	0xbd11bebf	-0.0355823
48	0xbd5c16b7	-0.0537326
49	0x3d24beae	0.04022091
50	0xbdb1ecc4	-0.086877376
51	0x3d8c4861	0.06849743
52	0xbc6ac598	-0.014329337
53	0x3c517f60	0.012786716
54	0xbc34c62e	-0.011033578
55	0xbd4e0005	-0.050292987
56	0x3cc578f5	0.024105528
57	0xbd9bb576	-0.0760297
58	0x3d5c02bb	0.05371354
59	0x3cbd8064	0.02313251
60	0xbbc926de	-0.0061386665
61	0xbd3eebe1	-0.04661167
62	0xbc079143	-0.008274379
63	0x3c363eee	0.011123402
64	0x3d1c0cf6	0.038098298
65	0x3db262ff	0.08710288
66	0x3ce5aca8	0.02803643
67	0xbd8d918d	-0.06912527
68	0x3b18e236	0.0023328192
69	0x3d1a3fe9	0.037658606
70	0x3b9ca5f5	0.004780526
71	0x3ca1d8fd	0.019756788
72	0x3ceda9a5	0.029011557
73	0xbd1c8874	-0.03821607
74	0x3c824e2d	0.015906418
75	0x3d0dc18f	0.03460842
76	0x3d9f375a	0.07774229
77	0xbd9e9936	-0.077440664
78	0xbc86345c	-0.016382389
79	0x3c0055ad	0.007832927
80	0xbcbfd713	-0.023417985
81	0x3d97835f	0.07398104
82	0xbd7e27cd	-0.062049676
83	0xbd41013a	-0.04712031
84	0xbcfa29a3	-0.030537432
85	0xbccc40e1	-0.02493328
86	0xbd1ec93b	-0.038766127
87	0x3cbb488d	0.022861743
88	0xbd9a9936	-0.07548754
89	0x3bab4ef3	0.0052279173
90	0xbda2e85e	-0.07954477
91	0x3cc51eb9	0.024062501
92	0xbd6d7ea4	-0.057982102
93	0x3c84f3af	0.016229479
94	0xbd462616	-0.048376165
95	0x3d316578	0.04330966
96	0xbd60de9f	-0.054899808
97	0xbcf9c636	-0.030490022
98	0xbd8d797d	-0.06907938
99	0xbd05dc65	-0.032680888
100	0xbcf0a929	-0.029377537
101	0x3d3d20a8	0.04617372
102	0x3d2837ad	0.04106872
103	0xbcf7b774	-0.030238844
104	0xbc12b25a	-0.008953655
105	0x3b9699b4	0.0045959596
106	0xbd20999c	-0.039208993
107	0x3ccdc88d	0.025120044
108	0x3ce847ea	0.028354604
109	0x3d489580	0.0489707
110	0xbd62a33d	-0.055331457
111	0xbd87b225	-0.06625775
112	0x3ccab766	0.024745654
113	0x3d74bef1	0.05975241
114	0x3db3a261	0.08771206
115	0x3d73c4fd	0.059514035
116	0xbc0a6213	-0.008446234
117	0xbda1f486	-0.07907967
118	0x3d8fe3e8	0.070258915
119	0x3d040baa	0.032237686
120	0xbc887f90	-0.016662389
121	0xbd48c726	-0.049018048
122	0xbc82e065	-0.01597614
123	0xbd391bc2	-0.045192488
124	0x3d3018ec	0.042992517
125	0xbd9e1dfd	-0.077205636
126	0x3d628361	0.055301074
127	0xbd14df95	-0.036346037
128	0x3d9d3344	0.07675794
129	0xbd73333a	-0.059375025
130	0xbb9563a7	-0.0045589986
131	0x3d462923	0.048379075
132	0x3c5e81dc	0.013580766
133	0x3d863642	0.065533176
134	0x3aa2b41b	0.0012413295
135	0xbd78872a	-0.060675777
136	0x3b92558d	0.004465765
137	0x3d8f4915	0.06996361
138	0x3da55785	0.08073334
139	0x3d63e8a6	0.055641793
140	0xbd732083	-0.059357177
141	0x3ccf1e31	0.025282951
142	0x3d2f9a44	0.04287173
143	0x3d533d1d	0.051571954
144	0xbd5b8e7d	-0.053602684
145	0xbcf9de92	-0.030501638
146	0xbd92a77f	-0.071608536
147	0xbd9cdb3d	-0.07659004
148	0xbd9dc4f2	-0.0770358
149	0x3d1737f2	0.036918588
150	0x3d24cf6f	0.040236887
151	0x3d628a36	0.05530759
152	0x3d10ae1e	0.0353223
153	0xbd5a11d4	-0.05323966
154	0x3db99712	0.090620175
155	0x3d83a481	0.06427861
156	0x3ba704e1	0.005097017
157	0xbc2350e5	-0.009968017
158	0x3d94cf53	0.072661065
159	0x3d837fa4	0.0642083
160	0xbd05d4e4	-0.03267373
161	0xbcb9d1e4	-0.022683091
162	0x3d26d0c2	0.04072643
163	0xbc9f924f	-0.019478945
164	0x3d04d276	0.032427274
165	0x3d444101	0.047913555
166	0xbd9cb705	-0.07652096
167	0x3d98e627	0.07465773
168	0xbc172a8a	-0.009226451
169	0xbdaed8c9	-0.08537442
170	0x3d00d5d8	0.031453937
171	0xbcfadb33	-0.0306221
172	0xbd7eeea0	-0.06223929
173	0xbc52ec5b	-0.012873734
174	0x3c1d5168	0.009601928
175	0x3c0b1f1b	0.008491303
176	0x3db7dea3	0.089780115
177	0x3cdfec41	0.027334334
178	0xbd4a45ac	-0.04938285
179	0x3d6bdb02	0.05758191
180	0x3ccfab72	0.025350306
181	0x3c26b927	0.01017598
182	0x3cdd376e	0.02700397
183	0xbd366b81	-0.044536117
184	0xbdb7b342	-0.089697376
185	0xbb2e0fa0	-0.0026559606
186	0xbdb746f4	-0.0894908
187	0xbdac2197	-0.08404844
188	0xbccb028c	-0.024781488
189	0xbd0daf74	-0.034591153
190	0xbd6b9225	-0.05751242
191	0x3d370bc0	0.04468894
192	0xbd11d960	-0.035607696
193	0xbdb6b67b	-0.08921524
194	0x3d5e21a1	0.05423129
195	0xbd7c04ec	-0.06152813
196	0x3c7f7a80	0.015593171
197	0x3d902e78	0.07040113
198	0xbcc956ee	-0.024577584
199	0xbda91b0f	-0.08257114
200	0x3d80ade1	0.06283165
201	0x3c02d2b6	0.007984808
202	0xbc9a3b4b	-0.018827101
203	0xbdb7ae95	-0.08968846
204	0x3d1435e3	0.036184203
205	0x3d4982ac	0.049196884
206	0xbcc260a7	-0.023727728
207	0x3bbffa53	0.0058586984
208	0xbccffdad	-0.025389517
209	0x3cfd97d3	0.030956184
210	0x3c8f72d0	0.017510802
211	0x3d1bfbda	0.03808198
212	0xbd41f37a	-0.047351338
213	0x3ab39138	0.0013699895
214	0x3dae04f7	0.08497041
215	0xbd8a37d7	-0.06748932
216	0xbda13444	-0.07871297
217	0xbd70cea4	-0.058790818
218	0xbd9c92df	-0.07645201
219	0x3d08d11d	0.03340255
220	0xbd36998d	-0.04458003
221	0x3da05f21	0.078306444
222	0x3cea86b7	0.02862869
223	0x3c0d724d	0.008633208
224	0xbd6161d3	-0.055024933
225	0xbc285dac	-0.010276239
226	0xbd65649b	-0.056004148
227	0x3d23fb24	0.04003443
228	0x3da53dae	0.08068405
229	0xbd115e3e	-0.035490267
230	0xbd69f5c7	-0.057119157
231	0xbdb1ce38	-0.08681911
232	0xbac2fa55	-0.001487563
233	0x3d87583e	0.06608628
234	0xbcc384d1	-0.023867043
235	0xbd3f0c1c	-0.046642408
236	0x3b8679b0	0.0041038617
237	0xbda630da	-0.081147864
238	0x3d5856e1	0.05281723
239	0xbcec94e6	-0.028879594
240	0x3cccefb9	0.025016652
241	0x3c2c2e3b	0.010509069
242	0xbdcdd02f	-0.100494735
243	0xbdb39ebe	-0.08770512
244	0x3d795222	0.060869344
245	0x3c81c009	0.01583864
246	0x3e165dce	0.14684221
247	0x3cce5174	0.025185324
248	0xbc45ecdc	-0.012080397
249	0xbd3b6aa8	-0.045756012
250	0x3dae1b54	0.08501306
251	0x3d795974	0.060876325
252	0xbd9a9ea2	-0.07549788
253	0x3d34d834	0.0441515
254	0x3d9ae90d	0.07563982
255	0x3d35d565	0.044392962

fc2.bias f4 [84]
0	0xbc1fda47	-0.009756631
1	0xbc3b120e	-0.011417879
2	0x3cdfcda4	0.027319737
3	0x3d8cd31f	0.06876206
4	0x3da99542	0.08280422
5	0x3b9a2099	0.004703593
6	0xbd18f76e	-0.037345342
7	0x3d051e8b	0.03249983
8	0x3c043aa5	0.008070623
9	0x3d8f08c3	0.06984093
10	0x3be15e97	0.006877731
11	0xbd003e32	-0.031309314
12	0x3d69b23b	0.05705474
13	0x3d6df1f7	0.058092084
14	0x3d854669	0.0650757
15	0x3e0e4e04	0.13896948
16	0xbd8af21f	-0.06784462
17	0x3cb7f439	0.022455322
18	0x3d7782ee	0.0604276
19	0x3da0c7dc	0.0785062
20	0xbcdc34f4	-0.026880719
21	0xbd20db51	-0.039271656
22	0x3e025672	0.12728289
23	0xbd5fd9c4	-0.054651037
24	0xbc5af6a9	-0.013364472
25	0x3dd5e3b1	0.10443819
26	0x3e141e54	0.14464694
27	0x3d0516ce	0.03249245
28	0x3d915344	0.0709596
29	0xbce548da	-0.02798884
30	0xbd90cbaa	-0.07070096
31	0x3d04ba1d	0.032404054
32	0xbdb695cc	-0.0891529
33	0x3da0925a	0.07840414
34	0xbd6fb5da	-0.058523037
35	0x3e33d2f2	0.17560938
36	0xbb30c21b	-0.0026971165
37	0x3c1a6430	0.009423301
38	0x3ce4c65d	0.027926618
39	0x3c4c2599	0.012460136
40	0x3d7e52a5	0.062090535
41	0xbda10072	-0.07861413
42	0x3d21686a	0.039406218
43	0x3d30cf1a	0.043166257
44	0xbcc5b4e7	-0.024134113
45	0xbc714099	-0.014724874
46	0xbd931f46	-0.07183699
47	0xbcf26427	-0.029588772
48	0xbda2f795	-0.07957379
49	0x3d84b5cb	0.06479987
50	0xbd2ff52f	-0.042958435
51	0xbcd77db4	-0.026305057
52	0xbd4a1ced	-0.049343992
53	0xbc6f1a9d	-0.014593747
54	0x3d844114	0.06457725
55	0x3c58308f	0.013195171
56	0x3d9243f1	0.07141865
57	0x3d1ffa35	0.039056975
58	0xbd4442c3	-0.04791523
59	0xbd75b8bd	-0.059990633
60	0xbd5a7b0f	-0.053340014
61	0x3d0fe8dc	0.03513418
62	0x3de5ee63	0.11227109
63	0xbd487e3b	-0.048948508
64	0xbd9794b8	-0.07401413
65	0x3c472a36	0.01215606
66	0x3e001849	0.12509264
67	0xbd1de752	-0.038550682
68	0x3d03dfb4	0.03219576
69	0x3d48a4e9	0.048985396
70	0xbd81d95a	-0.06340285
71	0x3d5c3557	0.053761806
72	0xbd382b6a	-0.044963278
73	0x3db00c6b	0.085961185
74	0xbdb11608	-0.0864678
75	0x3b7838ec	0.0037875725
76	0x3dc704c4	0.09717706
77	0x3a86e331	0.0010291097
78	0x3dc9821d	0.0983927
79	0xbdbbcf7e	-0.09170435
80	0xbb417a0f	-0.0029522215
81	0xbda34d60	-0.079737425
82	0x3dfc9342	0.12332775
83	0x3e0883da	0.13331547

fc3.weight f4 [38, 84]
0	0xbd4bbfab	-0.049743336
1	0xbc5e006b	-0.013549904
2	0x3be49473	0.0069757043
3	0xbca8ce9a	-0.020606328
4	0x3d3eca5a	0.046579696
5	0x3c8abbf3	0.016935324
6	0xbcbc3b02	-0.022977356
7	0x3d4589dd	0.04822718
8	0x3d5050ae	0.050858192
9	0x3caa32e5	0.020776222
10	0xbda257ac	-0.07926878
11	0x3e103de0	0.14086103
12	0xbc923950	-0.017849594
13	0xbd2c5028	-0.04206863
14	0xbce165ee	-0.027514424
15	0xbd64c00f	-0.055847224
16	0xbc30c800	-0.010789871
17	0x3d9dba58	0.07701558
18	0x3dc4deac	0.09612784
19	0xbde35b23	-0.11101367
20	0xbd82e752	-0.06391777
21	0x3c0b4280	0.008499742
22	0xbd92d942	-0.07170345
23	0x3c88ee17	0.016715093
24	0x3df94b0f	0.121725194
25	0x3da79896	0.081834
26	0x3d948678	0.072522104
27	0x3da31563	0.079630636
28	0xbc4a184f	-0.012334897
29	0x3b0c64b3	0.0021422326
30	0xbdbc1eeb	-0.09185585
31	0x3d35961a	0.0443326
32	0x3da803a2	0.08203818
33	0xbd819f53	-0.06329217
34	0x3dead659	0.11466665
35	0x3c999edb	0.018752506
36	0xbb0d8fef	-0.0021600684
37	0x3dc3614e	0.09540044
38	0x3ca67b32	0.020322416
39	0x3dcdccee	0.10048853
40	0xbd0e097d	-0.034677017
41	0xbcb00506	-0.02148677
42	0xbd660cef	-0.05616468
43	0x3cb0988c	0.021557115
44	0xbcb6b479	-0.022302853
45	0xbcf66370	-0.030076712
46	0x3c40247f	0.011727451
47	0x3d8defed	0.06930528
48	0xbd9af4e4	-0.075662404
49	0x3d94c97d	0.07264993
50	0x3b17140e	0.0023052725
51	0x3d9afc56	0.075676605
52	0x3d30946e	0.043110304
53	0xbe01d449	-0.12678637
54	0xbdde8c3c	-0.10866591
55	0xbdec6331	-0.11542357
56	0x3d7deb79	0.061992142
57	0xbdb3e267	-0.08783417
58	0xbdd203a4	-0.10254601
59	0xbdc28678	-0.09498304
60	0x3dc24359	0.09485502
61	0x3d915431	0.07096136
62	0x3d9e6a0b	0.0773507
63	0x3cd7c757	0.02634017
64	0xbdbdbaf4	-0.09264174
65	0x3cff9860	0.031200588
66	0xbd8fcd96	-0.07021634
67	0xbbc9fc2b	-0.006164094
68	0xbd43c0ed	-0.04779141
69	0xbdbdbf7d	-0.09265039
70	0x3d9c09fe	0.07619093
71	0x3d541445	0.051777143
72	0xbd5a679b	-0.053321462
73	0xbdc78858	-0.097428024
74	0x3be84773	0.0070885955
75	0x3ddb26dc	0.10700771
76	0xbcffbce5	-0.031218002
77	0xbc92871d	-0.017886693
78	0xbdb8543b	-0.09000441
79	0xbd48d356	-0.04902967
80	0x3db34529	0.08753426
81	0xbdb18767	-0.08668404
82	0x3cbb47e0	0.022861421
83	0x3df91742	0.12162639
84	0xbd5b20e8	-0.05349818
85	0xbdabbe72	-0.08385934
86	0x3d83b12d	0.06430278
87	0xbdf713cf	-0.12064325
88	0xbda8b4c9	-0.08237607
89	0x3d6ee655	0.05832513
90	0x3cfda55d	0.03096264
91	0xbd1f6d51	-0.03892261
92	0xbc5ced91	-0.013484375
93	0x3e042b72	0.12907198
94	0xbdd8b91d	-0.105821826
95	0x3e1a0cb6	0.15043911
96	0x3c8ae089	0.01695277
97	0xbcf1f0e2	-0.029533807
98	0xbd5c7cbb	-0.05382989
99	0xbdfbc68e	-0.12293731
100	0x3df2f8e2	0.11863877
101	0x3d1771fb	0.036973935
102	0xbd85154f	-0.06498205
103	0x3daa355c	0.08310959
104	0x3d4458ec	0.047936365
105	0xbc6c39b4	-0.014418054
106	0xbc10f9e2	-0.008848639
107	0xbdcc29b7	-0.09968894
108	0xbd293293	-0.041307997
109	0x3c37cba9	0.01121799
110	0x3e0a7b86	0.13523683
111	0xbda7f1c5	-0.08200411
112	0xbdf6ef52	-0.120573655
113	0x3cbe5977	0.02323602
114	0x3dbbd681	0.09171773
115	0x3cd29d07	0.025709642
116	0xbda15ed2	-0.07879414
117	0x3d8d9abd	0.069142796
118	0x3e256bf0	0.16154456
119	0xbdab6c3e	-0.08370255
120	0x3dea93f5	0.11454002
121	0xbe11bb76	-0.14231667
122	0xbcbe8df6	-0.023261052
123	0x3dee2274	0.11627665
124	0xbd0636a7	-0.032766964
125	0x3d378278	0.04480216
126	0x3d0c257c	0.034215435
127	0x3b770d7e	0.003769725
128	0xbd826255	-0.063664116
129	0xbe365471	-0.1780565
130	0x3de4a7f5	0.11164848
131	0x3e1c9c48	0.15293992
132	0xbda9f262	-0.08298184
133	0xbdd22f7b	-0.102629624
134	0xbe21042f	-0.15724252
135	0x3c611830	0.013738677
136	0xbd9a99d0	-0.07548869
137	0xbe2a0d40	-0.16606617
138	0xbdc06b9c	-0.09395525
139	0x3dcbd8bf	0.099534504
140	0xbd9fcfb8	-0.07803291
141	0xbda93297	-0.08261602
142	0x3c318898	0.010835789
143	0xbddbd3c7	-0.10733753
144	0xbe04b598	-0.12959898
145	0x3da1b842	0.078964725
146	0x3d104ff2	0.03523249
147	0xbcbe6dcd	-0.023245716
148	0xbd008463	-0.031376254
149	0x3e0cb86e	0.1374223
150	0xbd99e1ec	-0.07513794
151	0xbd225c43	-0.03963877
152	0x3db21df4	0.08697119
153	0xbdab2493	-0.08356585
154	0x3dbbce7a	0.09170242
155	0xbcd07bb1	-0.025449606
156	0x3dccdfab	0.10003599
157	0xbd12d780	-0.035850048
158	0xbc56c4fa	-0.013108486
159	0xbcc237a3	-0.02370817
160	0x3d7bf2ae	0.061510734
161	0x3d90b076	0.07064907
162	0xbda1e1aa	-0.0790437
163	0xbd8c1983	-0.068408035
164	0x3d1587a0	0.036506295
165	0x3c9c2439	0.019060241
166	0xbd8379c4	-0.06419709
167	0x3de59980	0.112109184
168	0xbc703993	-0.014662164
169	0x3d94c898	0.07264823
170	0x3d464665	0.048406977
171	0x3da94857	0.08265751
172	0xbc080422	-0.008301767
173	0xbcff5447	-0.031168116
174	0xbc4bc857	-0.012437901
175	0x3da6e238	0.081486166
176	0x3bdd6a1d	0.0067570345
177	0xbd6d6ce0	-0.05796516
178	0xbd82291b	-0.063554965
179	0x3dd83dfb	0.10558697
180	0x3d8fec0c	0.07027444
181	0x3d269225	0.040666718
182	0xbd525321	-0.05134881
183	0xbd90f0ea	-0.07077201
184	0x3d1a0724	0.037604466
185	0x3dce31c5	0.100680865
186	0xbcb666a6	-0.022265743
187	0x3db746a9	0.08949024
188	0x3d41d2f0	0.047320306
189	0x3d0918d9	0.033470962
190	0xbd6d0fa5	-0.057876248
191	0x3dc41c52	0.09575714
192	0xbd93d0ee	-0.072175846
193	0xbc97f764	-0.018550582
194	0x3db9716a	0.09054835
195	0xbc47c7bf	-0.012193619
196	0xbb10a2e9	-0.0022069758
197	0xbdbdba1c	-0.09264013
198	0xbc2eb2fa	-0.0106627885
199	0x3d1359b1	0.03597421
200	0xbda8dec9	-0.08245618
201	0x3c8b2ff6	0.016990643
202	0x3dc7b021	0.09750391
203	0x3d5562bb	0.05209611
204	0xbd076eb9	-0.033064578
205	0xbc958020	-0.018249571
206	0x3bd5b195	0.0065214136
207	0xbcfd9653	-0.03095547
208	0x3d8ae19e	0.06781314
209	0xbdd895cd	-0.10575447
210	0xbd9d03af	-0.07666718
211	0xbda8113a	-0.08206411
212	0xbba09663	-0.00490074
213	0xbd9c5f3c	-0.07635352
214	0xbd898875	-0.0671548
215	0x3cf2e85b	0.029651811
216	0x3d2160b6	0.03939887
217	0xbdd88edf	-0.105741255
218	0x3d3837a6	0.044974945
219	0x3da51b63	0.08061864
220	0x3dbf9ab9	0.09355683
221	0xbdee7570	-0.11643493
222	0x3d63bd1a	0.055600263
223	0xbc5e5a58	-0.013571344
224	0xbda97c7b	-0.08275696
225	0xbd066253	-0.032808613
226	0x3dba3ae3	0.09093263
227	0x3dcfb0a2	0.10141112
228	0xbdbb55ed	-0.091472484
229	0x3d4bce1f	0.04975712
230	0x3a8fecdf	0.0010980627
231	0xbd7d7c75	-0.06188627
232	0xbca75e1c	-0.020430617
233	0xbd3bff54	-0.045897797
234	0xbdabd828	-0.08390838
235	0x3ddc0e48	0.107449114
236	0x3d863106	0.06552319
237	0xbd363fbf	-0.044494387
238	0x3c2d0843	0.010561052
239	0xbd8be187	-0.06830125
240	0x3b2ced09	0.00263864
241	0xbda96092	-0.082703725
242	0xbdc562a4	-0.09637955
243	0xbd5918c5	-0.053002138
244	0xbd5d3590	-0.05400616
245	0x3d142944	0.036172166
246	0xbc1eb7dc	-0.00968739
247	0x3d63c580	0.055608273
248	0x3d3eecf6	0.046612702
249	0xbcb87f11	-0.022521527
250	0xbdb19afa	-0.086721376
251	0x3d483692	0.048880167
252	0x3d724b74	0.05915399
253	0x3c6be064	0.014396761
254	0xbd2d9da1	-0.042386655
255	0xbe72ee86	-0.23723802

fc3.bias f4 [38]
0	0xbc957ac9	-0.018247025
1	0x3cfc5b3e	0.030805226
2	0xbd5f8281	-0.054567818
3	0x3e023d4d	0.12718697
4	0xbe6a0c85	-0.22856338
5	0x3d635929	0.05550495
6	0xbbe0a0cc	-0.006855106
7	0x3c43e55d	0.01195654
8	0x3d31d3e6	0.043414973
9	0xbd133a40	-0.035944223
10	0x3cbe3b23	0.023221558
11	0xbda58c3d	-0.08083389
12	0xbe08b613	-0.13350706
13	0xbccce31e	-0.025010642
14	0xbcc95d48	-0.024580613
15	0x3ebf0325	0.37307087
16	0x3e1b5c5e	0.15171954
17	0xbde6084c	-0.11232051
18	0xbd7585f2	-0.059942193
19	0x3dc43ab5	0.0958151
20	0xbd777eb1	-0.060423557
21	0xbd12fafb	-0.035883885
22	0xbd0714a5	-0.032978673
23	0x3bcc5742	0.006235988
24	0xbc0992d7	-0.008396826
25	0x3ee7c16a	0.4526475
26	0x3d7844be	0.060612433
27	0xbbb9d28f	-0.0056708525
28	0x3cb430e7	0.021995975
29	0xbd9e3adf	-0.077260725
30	0x3e45e28e	0.19324705
31	0xbcbc7bf2	-0.02300832
32	0x3e25712f	0.16156457
33	0xbd888030	-0.06665075
34	0x3e022771	0.12710358
35	0xbd4042bb	-0.04693864
36	0xbcb3407b	-0.021881333
37	0x3eb6cf4e	0.35705036
